2026-05-28 17:34:36,185 - Namespace(data_dir='dataset/aircraft_dataset/', save_dir='dataset/aircraft_dataset/', fold_id=0, gpu=0, val_iter=10, cfd_config_dir='cfd/cfd_params.yaml', cfd_model='transolver_plus', cfd_mesh=False, r=0.2, weight=0.5, lr=0.001, batch_size=1, nb_epochs=50, preprocessed=1, finetune=0, pos_norm=1, out_norm=1, dataset='airplane', eval=True, local_rank=0, out_dim=4, out_path='demo')
2026-05-28 17:34:36,186 - Number of parameters: 1741738
2026-05-28 17:34:36,186 - Model(
  (preprocess): MLP(
    (linear_pre): Sequential(
      (0): Linear(in_features=7, out_features=512, bias=True)
      (1): GELU(approximate='none')
    )
    (linear_post): Linear(in_features=512, out_features=256, bias=True)
    (linears): ModuleList()
  )
  (embedding): Linear(in_features=3, out_features=256, bias=True)
  (blocks): ModuleList(
    (0-2): 3 x Transolver_plus_block(
      (ln_1): LayerNorm((256,), eps=1e-05, elementwise_affine=True, bias=True)
      (Attn): Physics_Attention_1D_Eidetic(
        (softmax): Softmax(dim=-1)
        (dropout): Dropout(p=0.1, inplace=False)
        (proj_temperature): Sequential(
          (0): Linear(in_features=32, out_features=32, bias=True)
          (1): GELU(approximate='none')
          (2): Linear(in_features=32, out_features=1, bias=True)
          (3): GELU(approximate='none')
        )
        (in_project_x): Linear(in_features=256, out_features=256, bias=True)
        (in_project_slice): Linear(in_features=32, out_features=32, bias=True)
        (to_q): Linear(in_features=32, out_features=32, bias=False)
        (to_k): Linear(in_features=32, out_features=32, bias=False)
        (to_v): Linear(in_features=32, out_features=32, bias=False)
        (to_out): Sequential(
          (0): Linear(in_features=256, out_features=256, bias=True)
          (1): Dropout(p=0.1, inplace=False)
        )
      )
      (ln_2): LayerNorm((256,), eps=1e-05, elementwise_affine=True, bias=True)
      (mlp): MLP(
        (linear_pre): Sequential(
          (0): Linear(in_features=256, out_features=512, bias=True)
          (1): GELU(approximate='none')
        )
        (linear_post): Linear(in_features=512, out_features=256, bias=True)
        (linears): ModuleList()
      )
    )
    (3): Transolver_plus_block(
      (ln_1): LayerNorm((256,), eps=1e-05, elementwise_affine=True, bias=True)
      (Attn): Physics_Attention_1D_Eidetic(
        (softmax): Softmax(dim=-1)
        (dropout): Dropout(p=0.1, inplace=False)
        (proj_temperature): Sequential(
          (0): Linear(in_features=32, out_features=32, bias=True)
          (1): GELU(approximate='none')
          (2): Linear(in_features=32, out_features=1, bias=True)
          (3): GELU(approximate='none')
        )
        (in_project_x): Linear(in_features=256, out_features=256, bias=True)
        (in_project_slice): Linear(in_features=32, out_features=32, bias=True)
        (to_q): Linear(in_features=32, out_features=32, bias=False)
        (to_k): Linear(in_features=32, out_features=32, bias=False)
        (to_v): Linear(in_features=32, out_features=32, bias=False)
        (to_out): Sequential(
          (0): Linear(in_features=256, out_features=256, bias=True)
          (1): Dropout(p=0.1, inplace=False)
        )
      )
      (ln_2): LayerNorm((256,), eps=1e-05, elementwise_affine=True, bias=True)
      (mlp): MLP(
        (linear_pre): Sequential(
          (0): Linear(in_features=256, out_features=512, bias=True)
          (1): GELU(approximate='none')
        )
        (linear_post): Linear(in_features=512, out_features=256, bias=True)
        (linears): ModuleList()
      )
      (ln_3): LayerNorm((256,), eps=1e-05, elementwise_affine=True, bias=True)
      (mlp2): Linear(in_features=256, out_features=6, bias=True)
    )
  )
)
2026-05-28 17:34:36,909 - 91_2_0_0: pressure L2RE=0.1329 | ref CA=0.4863 CN=0.1873 Cm=-0.1579
2026-05-28 17:34:37,107 - 91_7_0_0: pressure L2RE=0.1089 | ref CA=0.1043 CN=-0.0777 Cm=-0.0480
2026-05-28 17:34:37,289 - 91_7_0_2: pressure L2RE=0.1097 | ref CA=0.1045 CN=-0.0784 Cm=-0.0481
2026-05-28 17:34:37,551 - 91_7_7_0: pressure L2RE=0.1129 | ref CA=0.1133 CN=0.8492 Cm=-0.0489
…
