2026-05-28 15:01:45,214 - Namespace(data_dir='dataset/aircraft_dataset/', save_dir='dataset/aircraft_dataset/', fold_id=0, gpu=0, val_iter=1, cfd_config_dir='cfd/cfd_params.yaml', cfd_model='transolver_plus', cfd_mesh=False, r=0.2, weight=0.5, lr=0.001, batch_size=1, nb_epochs=50, preprocessed=1, finetune=0, pos_norm=1, out_norm=1, dataset='airplane', eval=False, local_rank=0, out_dim=4, out_path='demo')
2026-05-28 15:01:45,214 - Number of parameters: 1741738
2026-05-28 15:01:45,215 - Model(
  (preprocess): MLP(
    (linear_pre): Sequential(
      (0): Linear(in_features=7, out_features=512, bias=True)
      (1): GELU(approximate='none')
    )
    (linear_post): Linear(in_features=512, out_features=256, bias=True)
    (linears): ModuleList()
  )
  (embedding): Linear(in_features=3, out_features=256, bias=True)
  (blocks): ModuleList(
    (0-2): 3 x Transolver_plus_block(
      (ln_1): LayerNorm((256,), eps=1e-05, elementwise_affine=True, bias=True)
      (Attn): Physics_Attention_1D_Eidetic(
        (softmax): Softmax(dim=-1)
        (dropout): Dropout(p=0.1, inplace=False)
        (proj_temperature): Sequential(
          (0): Linear(in_features=32, out_features=32, bias=True)
          (1): GELU(approximate='none')
          (2): Linear(in_features=32, out_features=1, bias=True)
          (3): GELU(approximate='none')
        )
        (in_project_x): Linear(in_features=256, out_features=256, bias=True)
        (in_project_slice): Linear(in_features=32, out_features=32, bias=True)
        (to_q): Linear(in_features=32, out_features=32, bias=False)
        (to_k): Linear(in_features=32, out_features=32, bias=False)
        (to_v): Linear(in_features=32, out_features=32, bias=False)
        (to_out): Sequential(
          (0): Linear(in_features=256, out_features=256, bias=True)
          (1): Dropout(p=0.1, inplace=False)
        )
      )
      (ln_2): LayerNorm((256,), eps=1e-05, elementwise_affine=True, bias=True)
      (mlp): MLP(
        (linear_pre): Sequential(
          (0): Linear(in_features=256, out_features=512, bias=True)
          (1): GELU(approximate='none')
        )
        (linear_post): Linear(in_features=512, out_features=256, bias=True)
        (linears): ModuleList()
      )
    )
    (3): Transolver_plus_block(
      (ln_1): LayerNorm((256,), eps=1e-05, elementwise_affine=True, bias=True)
      (Attn): Physics_Attention_1D_Eidetic(
        (softmax): Softmax(dim=-1)
        (dropout): Dropout(p=0.1, inplace=False)
        (proj_temperature): Sequential(
          (0): Linear(in_features=32, out_features=32, bias=True)
          (1): GELU(approximate='none')
          (2): Linear(in_features=32, out_features=1, bias=True)
          (3): GELU(approximate='none')
        )
        (in_project_x): Linear(in_features=256, out_features=256, bias=True)
        (in_project_slice): Linear(in_features=32, out_features=32, bias=True)
        (to_q): Linear(in_features=32, out_features=32, bias=False)
        (to_k): Linear(in_features=32, out_features=32, bias=False)
        (to_v): Linear(in_features=32, out_features=32, bias=False)
        (to_out): Sequential(
          (0): Linear(in_features=256, out_features=256, bias=True)
          (1): Dropout(p=0.1, inplace=False)
        )
      )
      (ln_2): LayerNorm((256,), eps=1e-05, elementwise_affine=True, bias=True)
      (mlp): MLP(
        (linear_pre): Sequential(
          (0): Linear(in_features=256, out_features=512, bias=True)
          (1): GELU(approximate='none')
        )
        (linear_post): Linear(in_features=512, out_features=256, bias=True)
        (linears): ModuleList()
      )
      (ln_3): LayerNorm((256,), eps=1e-05, elementwise_affine=True, bias=True)
      (mlp2): Linear(in_features=256, out_features=6, bias=True)
    )
  )
)
2026-05-28 15:05:48,473 - Epoch 0, train_loss: 0.7545651042213043, val_loss_mse: 0.6420535266399383, val_loss_l2re: 0.6457201937834421
2026-05-28 15:08:13,240 - Epoch 1, train_loss: 0.5705314207822084, val_loss_mse: 0.48080955545107523, val_loss_l2re: 0.6432692289352417
2026-05-28 15:10:50,502 - Epoch 2, train_loss: 0.518945045148333, val_loss_mse: 0.49938936332861583, val_loss_l2re: 0.6656299690405528
…
